…
trics=['accuracy'])",
      "execution_count": 6,
      "outputs": []
    },
    {
      "metadata": {
        "trusted": true,
        "_uuid": "088701364fc1f49ee647adb1794d58b7a846d77b"
      },
      "cell_type": "code",
      "source": "model.summary()",
      "execution_count": 7,
      "outputs": [
        {
          "output_type": "stream",
          "text": "_________________________________________________________________\nLayer (type)                 Output Shape              Param #   \n=================================================================\nconv2d_1 (Conv2D)            (None, 26, 26, 32)        320       \n_________________________________________________________________\nmax_pooling2d_1 (MaxPooling2 (None, 13, 13, 32)        0         \n_________________________________________________________________\ndropout_1 (Dropout)          (None, 13, 13, 32)        0         \n_________________________________________________________________\nconv2d_2 (Conv2D)            (None, 11, 11, 64)        18496     \n_________________________________________________________________\nmax_pooling2d_2 (MaxPooling2 (None, 5, 5, 64)          0         \n_________________________________________________________________\ndropout_2 (Dropout)          (None, 5, 5, 64)          0         \n_________________________________________________________________\nflatten_1 (Flatten)          (None, 1600)              0         \n_________________________________________________________________\ndense_1 (Dense)              (None, 250)               400250    \n_________________________________________________________________\ndropout_3 (Dropout)          (None, 250)               0         \n_________________________________________________________________\ndense_2 (Dense)              (None, 10)                2510      \n=================================================================\nTotal params: 421,576\nTrainable params: 421,576\nNon-trainable params: 0\n_________________________________________________________________\n",
          "name": "stdout"
        }
      ]
    },
    {
      "metadata": {
        "trusted": true,
        "_uuid": "c8db381a71e0265c0efb836c25ed400fb78fd18b"
      },
      "cell_type": "code",
…
